checkpoint_actor_multiple_agents.pth (torch_old, 110213 bytes, 6 tensors)

fc1.weight f4 [200, 33]
00000000: 99f4 123e ba92 b93e 1b15 b83e 692c 2cbe
00000010: 4f54 97bb eb15 883f d9c4 d23e 9048 43be
00000020: d09c a8bd 9b6c 183e 1a1a 123d 508c cfbd
00000030: 0a90 a33d 747b 90be 9114 19bf 1031 df3c
00000040: 0dff 07bf e391 09bd ea9a 25be ea6d 49be
00000050: 0dfb 7a3d 1245 713d 6251 34be d5d5 88bd
00000060: 83d3 3fbe 94ed 313e 7c9d f83c 0ec0 303f
00000070: f557 eebe 8087 90bb 6227 15bf cd39 8b3d
00000080: 3fba ffbf 6775 74bc 7ae7 853e d915 0cbf
00000090: 0a95 86be 3240 0ebd 6324 8fbe 5caf 0dbf
000000a0: db20 e63c e923 0f3e 20be bdbe acbf 29be
000000b0: 60d5 05bc 2a79 52be 845e e5be 89e9 aebc
000000c0: 536f 043d a137 9fbe 446c d7bd bf54 12be
000000d0: 8f15 9cbe 2081 3dbd c3fb a13e 3199 223d
000000e0: 8e12 c5be 15f7 3dbd b8db a43c e269 93bd
000000f0: 5a9e 223f 8e39 8e3e fee4 4abd 20d9 1fbf
00000100: d002 993b 0c4c 993f ad01 b23c a70d 453f
00000110: 6c52 b7bd b4eb d0be df73 1e3f 4b42 963c
00000120: 7b7d 31bf 1145 ab3e 913f 843e c323 2dbf
00000130: 71a3 ecbe bcdf 1c3d 8f54 36be 5953 96be
00000140: 2ca6 6d3f 64ca b53d 0e1f 793e fc1f 0abf
00000150: 1244 09bf 64f3 cdbd 4d2d 50be 412e 463c
00000160: 1a83 213f 831e 82be c8f3 043f c3a7 aa3e
00000170: 7c9e d8be 45e8 003f d627 85be 3e9d 553d
00000180: ad60 ddbe 78de 45bd b9ad a03e 92ea 6abe
00000190: 0c23 863e 7984 d83e 2dc6 6a3e f0a7 42be
000001a0: 90f8 003e 2393 893e 748a 293c 9623 eabe
000001b0: 4f86 55be 4179 ccbd 0f20 1b3f 6c47 e53d
000001c0: da1b b53c 07b4 25be 85d8 01bf c174 c2be
000001d0: 4812 45bd fc06 b1be 5a35 8e3e 73f0 c3be
000001e0: d413 b5be 68e7 a23e b86c 11bd ccb7 2bbc
000001f0: 00cd f2be f2e0 81bc 6b6a 103f 06a9 0a3d
00000200: 30f3 9a3b fd7f 12bf 7efb 663d d9df b0bd
00000210: 62b2 dabe 90a0 803e 6dd4 8bbe ec8c 29bd
00000220: 75b3 00bf b6b2 96be cdbf cabe f1ee cfbe
00000230: 404b 8b3d c2a5 cabe feb7 48be 0c22 1cbe
00000240: 19f9 3cbb 7c7d a2be 3941 063f 6017 d03e
00000250: 2108 d9bd 78fc a93d cbdf a9be 15de 673e
00000260: b14e 17be 169a 30be 52a7 2abe 700a 7abe
00000270: 6f7c ac3e 24d5 77be 86c8 493f 5806 203f
00000280: 94d6 1abe 5c23 46bd 3207 2abf a4e4 91bc
00000290: d087 dc3e b0ba eebe c095 aabd 184a bd3e
000002a0: 6a88 d0bd 069f 05bf 61a2 a63d 9c2e 693e
000002b0: f633 aa3d e3cb b6be 1ad3 bcbe 7604 783d
000002c0: 860a 03bf 3637 f2bd c1cc a63d 6775 663d
000002d0: e2ea a2bd 0ffc 6d3d 703c 843e 61c5 5a3e
000002e0: 5eeb cabd 3a71 b13e 321a d73e b40d 653d
000002f0: c406 eb3e 958a 303e 923c 5ebe c2dc 973e
00000300: d993 063f 2e28 163d 047f 56bd 10b9 10bf
00000310: 5b9e 863d b0b7 b4bf 5481 6a3e ddf8 4ebe
00000320: 8bbb 32be c652 53bc 16f4 c9bd af58 5abe
00000330: a5a1 8dbe 2ad2 423e e811 2c3f aa31 c9be
00000340: e519 2b3e 2d3a 083e 94bf eebd 8276 15bf
00000350: 030f fc3e 3182 843d 8151 3dbe 4c9d 663d
00000360: 83a3 3a3e e9a6 c7bd dc48 84be 36c3 623e
00000370: 8b7e 1c3d c8f0 143d 8ef5 19bd fe41 96bd
00000380: 1259 113f 30ba 12bb b74d c6bc d6dd e1bc
00000390: 1caa 043d 240e 0fbd 1387 f53f 8751 89bd
000003a0: ef1b b23e 31da 08bf 903a fabe bdc7 99bd
000003b0: a718 a33d 94d3 f1be 86a3 7b3d 604d 113f
000003c0: 4af2 0dbf 272f 743e ec43 823e 0c66 2dbe
000003d0: d8c6 31be f018 e43e ffc5 e13d c62c c4be
000003e0: f47f 083f 2350 563f 751a 803e f380 5a3e
000003f0: 5d74 f3bd bc02 4b3e 4249 cebe c60a 7cbe
0.14351119 0.36244756 0.35953602 -0.16813816 -0.0046182047 1.0631689 0.41165808 -0.19070649
-0.082330346 0.1488518 0.035669424 -0.10134184 0.07986458 -0.28219187 -0.59797007 0.027245075
-0.5312355 -0.033586394 -0.16172376 -0.19670835 0.061274577 0.05890376 -0.1760917 -0.0668141
-0.18733029 0.17375785 0.030348532 0.6904305 -0.4655148 -0.004410684 -0.5826322 0.06798134
-1.9978713 -0.014920569 0.26153165 -0.54720837 -0.26285583 -0.03472919 -0.27957448 -0.553457
0.028091839 0.13978542 -0.37059116 -0.16577023 -0.008168548 -0.20554033 -0.44798672 -0.021351593
0.03233273 -0.3109713 -0.10518697 -0.1429014 -0.30485198 -0.04626572 0.3163739 0.039696876
-0.3849072 -0.046378214 0.020124301 -0.0719793 0.63522875 0.27778286 -0.04953479 -0.6244068
0.0046695247 1.1976333 0.021729315 0.76973957 -0.089512676 -0.40804827 0.61895555 0.018342158
-0.69332093 0.3345113 0.25829747 -0.67632693 -0.46218446 0.038299307 -0.17805694 -0.29360464
0.92831683 0.088764936 0.24328253 -0.53955054 -0.5361949 -0.10056189 -0.20329781 0.012095989
0.6309067 -0.25413904 0.5193448 0.33331117 -0.42308414 0.50354415 -0.26006955 0.05215191
-0.4323782 -0.048307866 0.3138254 -0.22941044 0.26198614 0.4228857 0.2292716 -0.19009376
0.12594819 0.2687007 0.010347951 -0.45730275 -0.20852016 -0.09984065 0.6059579 0.11195263
0.022108007 -0.16181956 -0.5072101 -0.379797 -0.048113137 -0.3457564 0.2777508 -0.38269386
-0.3536669 0.31817174 -0.035504073 -0.010480832 -0.47422028 -0.015854333 0.5641238 0.0338526
0.0047286972 -0.57226545 0.056392185 -0.086364456 -0.4271422 0.251225 -0.27310506 -0.04139416
-0.5027383 -0.2943322 -0.39599457 -0.40611985 0.06801462 -0.39579588 -0.19601437 -0.15247363
-0.0028834997 -0.31736362 0.5244327 0.40642834 -0.105972536 0.08300108 -0.33178553 0.22643311
-0.14776112 -0.17246279 -0.1666539 -0.24418044 0.33688685 -0.242024 0.788216 0.6250968
-0.15120918 -0.048373565 -0.6641723 -0.01780922 0.43072367 -0.46626806 -0.08329344 0.36970592
-0.10182269 -0.52195776 0.0813644 0.22771686 0.08310692 -0.35702428 -0.36879808 0.06055113
-0.5118793 -0.11826937 0.081445225 0.056264307 -0.079549566 0.05810171 0.2582736 0.21364357
-0.09908174 0.34656698 0.42012173 0.05592127 0.459036 0.17240365 -0.21702793 0.29660612
0.5256935 0.036659412 -0.052367225 -0.5653238 0.06573173 -1.4118557 0.22900897 -0.20212121
-0.17454354 -0.012898153 -0.09861009 -0.21322893 -0.27662387 0.19025484 0.6721482 -0.39295703
0.16709097 0.13303442 -0.116576344 -0.58383954 0.49230203 0.064701445 -0.18488123 0.056302354
0.18226437 -0.097486325 -0.25836837 0.2214478 0.03820662 0.03636244 -0.037587695 -0.07336806
0.56776536 -0.0022388808 -0.02420698 -0.0275716 0.03238879 -0.034925595 1.9181846 -0.06705003
0.34786937 -0.53457934 -0.48872805 -0.075088 0.079636864 -0.47231734 0.061435245 0.5675869
-0.5544783 0.23846112 0.25442445 -0.16933459 -0.17361009 0.44550276 0.11024093 -0.3831541
0.5332024 0.8371603 0.25020185 0.21338253 -0.11887429 0.19825262 -0.40290266 -0.24613485

fc1.bias f4 [200]
00000000: d9bb 0dbf 1b3a 22bf 1cc9 1ebf ec16 febe
00000010: a00d 36bf 42fd 02bf d01e 823c 26a5 14bf
00000020: 41da 1dbf 5321 74be ef4c 2fbf 97c3 c1be
00000030: 982c 01bf 6433 aabd 13ba 81be cb26 893d
00000040: c9f4 64bf f2f4 aabe 7f07 09be ae34 36bf
00000050: d201 68bf d6b1 f0be 5956 2cbf d3f4 cc3d
00000060: 489b 3bbf 3b6a e8be e895 67be 4134 0dbf
00000070: bdb2 a7be 71b5 efbd 9552 63bf f197 1bbf
00000080: 626c 47be e016 32bf e390 73be 91ed 9bbe
00000090: d002 a5be 824a afbd 99a3 833c 92de a1bd
000000a0: 5067 5bbf 6189 77bf b95b 08bf 8c6f 06bf
000000b0: 59e3 fabd 6017 02bf b0b4 40be 20bf 8cbe
000000c0: 50a4 e1be c191 2ebe fd0e 1fbe cda5 52be
000000d0: 79a3 42bf aa45 d6be 46dc 3dbf b75c b5be
000000e0: 578d 07be b63d e0be 6cec f3be 1c6b 32bf
000000f0: a6ba c2be f4f1 07bf a32a 24bf 42c6 05bf
00000100: cfdb 23bf 86f2 a3be 4bfe 09be ac55 6cbf
00000110: 1a82 25bf 1f2b 0cbf 33db c5be 03da b0be
00000120: fcb4 adbe 39fa 313d 441e 40bf 3e56 b2be
00000130: 3124 03bf dd48 033e f75e b1be e942 7bbf
00000140: 9c09 30bf 8ec6 ecbe 471a 95be 1cba 8fbe
00000150: 7fb4 36bf 084b 18bf e5f7 9bbe 3d93 bbbe
00000160: dcd8 a5be 37f3 cebe da93 313e b6fe dbbe
00000170: 8077 38bf 6f98 2bbf 2dbc 08bf 21d8 34bf
00000180: 1e14 f73e 07d7 17bf ab57 72bf 1d97 67be
00000190: 88bc 67bf ca16 ddbd c7b3 a9be b00f a0be
000001a0: bf1f cabe 0832 56be f49b 6fbe 46f2 dabe
000001b0: 316b 9abd cbba 3bbe ed8c 3dbf dbac 1cbf
000001c0: f946 8ebe e04f 19bf b699 25bf 8721 3cbf
000001d0: 6bbd 6cbe df1a 2bbf 1a84 5abf 6429 65be
000001e0: ae1f b2be 8021 43bf 9b3c 85be d963 b2be
000001f0: b264 c2be 081d adbe 4773 4abf 83de 0cbf
00000200: c4dd 29bf f562 d2be 8322 5abf 3bbc 7fbc
00000210: 5da0 7bbe 0c8c 04bf 1ab6 eabd a9ce 1fbf
00000220: 2a3c ecbe 9f0a 8abe 55dd 58bf cbd2 44bf
00000230: 879a e8be a80d 793d 3f92 3ebf fd9d 593e
00000240: d394 bebe e431 50be bf28 4dbe fad1 30bf
00000250: b5a2 25bf 79a1 a6be ac5f 32bf e504 49bf
00000260: f894 77bf e72e cfbe 363d 3ebe ad38 c0be
00000270: 5ac6 98be d257 26bf 4fb6 cebe 9e36 27bf
00000280: 93be 503e c0f8 bb3d 117c e3be f943 36bf
00000290: 1367 9c3e b835 7dbe 22f0 0bbc 1b62 03bf
000002a0: a289 8dbe 0173 0dbf 569b 5cbf d4cd 9f3e
000002b0: ca08 abbe 275c 0bbf 43dd 28bf 4dfc 48bf
000002c0: de5c b23d 214a 16bf 607f 10bf 26ce 24bf
000002d0: 8642 05bf 4bac dfbe ebf3 fbbe 42b9 ccbe
000002e0: e9d2 a1be 971e 26bd 59a0 ecbe 7fbd dfbe
000002f0: 36b4 1abf bfe0 ebbe c92d 6bbf 1ea2 113e
00000300: e495 28be 510b c3bd bbb4 d8be c2b1 89be
00000310: 556c 16bf be93 0bbf 3ec4 acbe cea5 903d
-0.5536476 -0.6336991 -0.6202562 -0.49626863 -0.7111454 -0.5116769 0.015883833 -0.58064497
-0.61661154 -0.23840837 -0.68476766 -0.37844536 -0.5045867 -0.08310583 -0.25337276 0.06696852
-0.8943601 -0.33390003 -0.13381766 -0.7117413 -0.9062778 -0.47010678 -0.67319256 0.10007634
-0.73283815 -0.45393547 -0.22615778 -0.5515786 -0.32753554 -0.11704529 -0.88797885 -0.6077872
-0.19474939 -0.69566154 -0.23785739 -0.30454686 -0.32228708 -0.08559133 0.01606922 -0.0790378
-0.8570452 -0.96694 -0.5326496 -0.5251396 -0.122503944 -0.5081692 -0.18818927 -0.27489567
-0.44070673 -0.17047788 -0.15533061 -0.2057106 -0.7603069 -0.41850024 -0.74164236 -0.35422298
-0.1323751 -0.43797082 -0.47641313 -0.69694686 -0.38033026 -0.53103566 -0.6412756 -0.5225564
-0.64007276 -0.32020968 -0.13475911 -0.92318225 -0.64651644 -0.547533 -0.38643798 -0.3454133
-0.33927143 0.04345152 -0.7504618 -0.34831423 -0.512271 0.12820764 -0.34642765 -0.9814897
-0.6876466 -0.46245235 -0.2912161 -0.28071678 -0.71369165 -0.5948949 -0.30462566 -0.3663577
-0.32392013 -0.40419933 0.17341557 -0.42967767 -0.7205734 -0.6702947 -0.53412133 -0.70642287
0.48257536 -0.5931248 -0.9466502 -0.22616239 -0.9052205 -0.10795362 -0.33144972 -0.3126197
-0.39477345 -0.20917523 -0.23399335 -0.42762965 -0.075399764 -0.18332975 -0.7404316 -0.61201257
-0.27788523 -0.59887505 -0.6468767 -0.7348866 -0.23119132 -0.6683788 -0.8535782 -0.2237907
-0.34789795 -0.7622299 -0.260228 -0.34841803 -0.3796745 -0.33811212 -0.7908215 -0.55027026
-0.6635401 -0.41091123 -0.8520891 -0.0156088425 -0.24572892 -0.51776195 -0.11460514 -0.62424713
-0.46139652 -0.26961228 -0.84712726 -0.76884145 -0.45430395 0.06080404 -0.74441904 0.21251674
-0.3722292 -0.20331532 -0.20035075 -0.690704 -0.64701396 -0.3254507 -0.69677234 -0.78523093
-0.96711683 -0.4046547 -0.18578038 -0.3754324 -0.2983883 -0.64977753 -0.40373465 -0.65317714
0.20385198 0.09178305 -0.44430593 -0.7119747 0.3054739 -0.24727523 -0.008541139 -0.5132157
-0.27644068 -0.5525361 -0.86174524 0.31211722 -0.33405143 -0.5443749 -0.6596262 -0.7850998
0.08709119 -0.5870686 -0.5644436 -0.6437706 -0.5205463 -0.43686137 -0.49209532 -0.3998509
-0.31606224 -0.040556516 -0.46216086 -0.43699262 -0.6043123 -0.46069905 -0.9186674 0.14221999
-0.16463429 -0.09523643 -0.42325386 -0.2689343 -0.5875905 -0.5452231 -0.3374347 0.07062875

fc2.weight f4 [100, 200]
00000000: 85ea 133e 237f 43bf d1b6 4dbe c1a7 a0be
00000010: 0e7e 2e3e 48dc 10bf a3be 0e3e 1c5f b2bc
00000020: f1fd 27be ef58 253e 4bf6 c13e 8416 adbe
00000030: fdb4 033d a687 333e 15c6 4ebf 54d6 26be
00000040: 4250 973e 02f9 a4be b1c7 193e d2d2 a3be
00000050: 8ee7 54be eda5 bebe 8e7f 873e 4e63 1cbe
00000060: 69e2 053e ee56 523e 54d1 823e 524f f63a
00000070: ce80 2a3f 573d 06bf f917 cf3e 116d cc3d
00000080: f698 5cbd 8e76 26bf 0a1c d13d 9eb8 d2bd
00000090: d02a 13bf b0d3 183f 1427 24bf 798f a0bd
000000a0: 742a 60be 09a6 1e3f ef39 c63e b56b d93c
000000b0: 742e 89be 4bee c0be 6706 d13e 6b44 39be
000000c0: 95eb 4b3f 8aa2 99be 7ed5 e3bd 7fbe 5b3e
000000d0: 8661 d9be 3fe5 3dbe 3f01 47bd 09a8 9cbc
000000e0: d6b5 9cbe 5c76 c93d f581 103f cc3b 47bf
000000f0: b8e6 c3bd 172c 113f 0492 1a3f 7140 2cbd
00000100: 7d76 2d3a 1ee8 d03e 8440 e63d 17e8 3fbf
00000110: b8c7 183f 3771 e33e f407 7a39 7424 a8bd
00000120: cf34 063e 9895 033f 334f 2cbf c616 1e3e
00000130: 2d8f d9be 9fa4 e5be b823 753d d34f 11be
00000140: 3947 07bf 6313 2dbf d908 ad3e b29f 533e
00000150: 0cdf 40be 7612 3cbe a252 0fbf 52f0 37be
00000160: 3c97 10be 482b a3be ce7c f9bc 9e78 7bbf
00000170: 2be7 94bd 718a 71bf 1952 fc3e 8095 823d
00000180: d19c fb3d 1e49 773e 6bdb 2e3e 5fb8 793e
00000190: bb97 15bf b4d2 d23b 76b6 863e 3979 863e
000001a0: 85e3 f53e f241 303e df17 81bd 0539 b43d
000001b0: 2f97 4f3e 19f0 d63d e5cd 1b3f 5420 95bd
000001c0: 6af9 c13d 6057 3cbf 9a15 8fbe 1e1a f6be
000001d0: 44cc 813c bc8e 80be 528a 6cbf e0ed 93bd
000001e0: f3af 323f ac90 14be ebc7 88bd 0ce2 babe
000001f0: 2d6b bf3d d6dd 98bd f62a ad3e 535e aebe
00000200: f555 17bf a632 f4be cb33 aebe 35cb 2fbd
00000210: e162 f7be c7cf b0be a47d 123f cb43 993d
00000220: 3015 5c3e 556f fb3e b982 4b3d ce77 93be
00000230: d521 d2be ac3c a1be d7e1 003e 47b9 9ebd
00000240: 0545 aebe fe8f 3d3d 0739 ffba a167 b63d
00000250: 977c 17bf a6bc 5a3e 9bab b63d 8768 0c3e
00000260: 3714 c5be 7f00 9c3e 6562 cdbd 6aa1 8abe
00000270: 8064 723d 2e6a 253e ea45 34bf 3e5c cebe
00000280: cb7b 883e d6f0 13bf 74f8 20bf ed12 97bd
00000290: 17ee c73c 0fb8 39be 92d1 30bf e05d dbbe
000002a0: 6752 96be 9ea4 98be f8d1 d03e 8f8a fbbd
000002b0: 72a8 d63c 7fda 6bbd 18ab cc3e 0752 4d3e
000002c0: 5f16 ad3b 9136 083e d72c 883d 0ba8 4a3e
000002d0: 2d6c b53d ba79 06be 83bd b13c 11bd 143a
000002e0: 70c4 d23e 9701 54bf a32d 56be 5a14 763e
000002f0: 0aef 1d3f 9ccd 2ebd 7436 2cbf 0cdd 983e
00000300: 1c98 adbe f07e abbd cc75 95be 109b 083f
00000310: 9588 adbe 6499 b63d ac7a b63e ae5d df3d
00000320: 37b5 8cbc eba4 9b3d 76fc ddbc 55bc a93e
00000330: 80d7 51be 224b 1a3e a8d2 54bf d488 9a3e
00000340: 34e5 023f 625f 703d 4d07 7abe e641 013f
00000350: 712f 30bd dfe5 38be 0c8f bf3e 9010 93bd
00000360: 3d0d 003e c206 773e 16ed 0f3e b08e 94be
00000370: 2269 e83e 703e 2e3e 22a3 7a3c 7ad0 d4be
00000380: 35d0 a6be df27 eebd a96d 123d 2642 a6be
00000390: 5866 cb3e d07d 7dbe 69dc 7dbc a61f cabd
000003a0: e4ef 693d cfaf 71bc 74fa debe 1db2 303e
000003b0: 0420 2fbe 6921 80be 3ffa f7bd 14e7 96be
000003c0: df60 3cbf 444c 02be 80c3 c83d d202 c53e
000003d0: 4f28 60bd 6d58 cabc 03f5 0a3e d2c1 b0bd
000003e0: 8a68 fcbe 0954 9ebe 6eca 813e 0d84 033f
000003f0: e425 a9be 8f55 443e 1762 77be 3afe bf3e
0.14444931 -0.7636587 -0.2008927 -0.31377986 0.17040274 -0.5658612 0.1393991 -0.021773867
-0.16405465 0.16147207 0.3788322 -0.3380624 0.032155026 0.17532215 -0.80771 -0.16292697
0.2955342 -0.32221228 0.15017582 -0.3199678 -0.20791456 -0.37235966 0.26464504 -0.15272257
0.1307465 0.20540974 0.2555033 0.001879195 0.6660279 -0.5243735 0.40447977 0.0998174
-0.053856812 -0.6502465 0.10210426 -0.10289119 -0.574872 0.5969801 -0.6412213 -0.07839865
-0.21891195 0.619721 0.38716075 0.026540617 -0.26793253 -0.37681803 0.40825197 -0.18092506
0.79656345 -0.3000682 -0.11124705 0.21459387 -0.42457217 -0.18544482 -0.048585173 -0.019123094
-0.3060748 0.098370284 0.564483 -0.7782562 -0.095654905 0.567079 0.6037905 -0.042053644
0.00066170824 0.4080209 0.11242774 -0.74963516 0.59679747 0.44422314 0.0002384482 -0.08210078
0.13106082 0.51400137 -0.6730835 0.15438375 -0.42492047 -0.44852158 0.059848517 -0.14190607
-0.5284305 -0.67607707 0.33795813 0.20666388 -0.18835086 -0.18366417 -0.5598546 -0.17962769
-0.14120191 -0.31868958 -0.03045502 -0.9823092 -0.07270654 -0.9435187 0.49281386 0.06376171
0.1228577 0.24148986 0.17075889 0.24386738 -0.5843465 0.006433809 0.26311082 0.2626436
0.48025146 0.17212656 -0.06303381 0.08799938 0.20272516 0.10495014 0.60861045 -0.07281557
0.094714 -0.73570824 -0.27946168 -0.480668 0.015844472 -0.25108898 -0.9239856 -0.072231054
0.6979973 -0.14508313 -0.06678756 -0.36500585 0.09346614 -0.07464187 0.3382184 -0.3405634
-0.59115535 -0.47694892 -0.3402389 -0.042918403 -0.48317626 -0.34533522 0.5722296 0.074836336
0.21492457 0.49108377 0.049685214 -0.2880234 -0.41041437 -0.314916 0.12586151 -0.077501826
-0.34037033 0.0462799 -0.0019471952 0.089064844 -0.59174484 0.21361026 0.0891945 0.13711749
-0.38491985 0.30469128 -0.10028533 -0.27076274 0.059177876 0.16153786 -0.7041918 -0.4030475
0.26656947 -0.5778936 -0.6287911 -0.07376657 0.024405522 -0.18136619 -0.6906978 -0.42845058
-0.29359743 -0.29813093 0.40785193 -0.12282287 0.026203368 -0.05758142 0.39974284 0.20050822
0.005282208 0.13302065 0.066491775 0.19790666 0.088585235 -0.13132372 0.021696812 0.0005673925
0.41165495 -0.82814926 -0.20915847 0.24031201 0.6169287 -0.042676553 -0.6727059 0.29856145
-0.33905113 -0.08373821 -0.29191434 0.53361607 -0.33893266 0.08915976 0.35640466 0.1090654
-0.017176254 0.07599815 -0.027097922 0.33151498 -0.20492363 0.15067723 -0.83133936 0.30182517
0.51130986 0.058684714 -0.24416848 0.5049118 -0.043013994 -0.18056439 0.37413824 -0.071808934
0.1250505 0.24123672 0.14055285 -0.29015112 0.4539271 0.17016006 0.015297683 -0.41565305
-0.32580724 -0.116286986 0.03574911 -0.32472342 0.3972652 -0.24755025 -0.015494444 -0.09869318
0.057113543 -0.014751389 -0.43550456 0.17255445 -0.17102057 -0.2502549 -0.121082775 -0.29473174
-0.73585314 -0.12724406 0.09802914 0.38478714 -0.05472594 -0.024700368 0.13570027 -0.08630718
-0.49298507 -0.3092349 0.25349754 0.5137337 -0.3303672 0.19173263 -0.24158512 0.37498647

fc2.bias f4 [100]
00000000: acbf 4abd de65 343e 0fca db3e c842 79bd
00000010: fce1 f1be 46c5 75be ef14 893d be59 c6bd
00000020: e05e 2fbe 8125 673e cc9b d4be c2ee 95bd
00000030: 2641 86be b408 13bf 4b31 16be 9ac7 2ebf
00000040: 7ce6 9e3e 45c5 60be 8707 d1bd b26a 603e
00000050: 245a 1c3e 24d8 67be d5c5 a33d 9621 c7bd
00000060: 25db b3bd e027 a0be df43 c33d dd04 17be
00000070: 1916 ffbe faf2 34be 011a 303e 3a19 14be
00000080: 9fc2 8dbe c98b 303e 1a3d 793c 8880 a33c
00000090: d06b 9fbe 5103 c0be a8d2 56be bf80 e3be
000000a0: 039b 823e 118a debe f7ec 3cbf 4d2a a2bd
000000b0: 9843 8dbe 3b69 c8bd 433e 05bf c1f2 fbbd
000000c0: 4a63 e4bd b30f 0d3e 630d 7cbe f8f3 d53d
000000d0: 724e bdbe 358e 27be 43c2 01be ce03 b1be
000000e0: 3269 2b3c 3669 9dbe 1ffb ecbd f2b1 bb3e
000000f0: 834d cebd a922 55be 1e4d 98bd 4453 fbbd
00000100: 549c 7e3d 84c2 ae3e e99a 4ebe dc0d 12be
00000110: 0754 01be 9bdf 6ebe fd84 733e 588e d8bd
00000120: d5d3 923d d76b 0d3e 8c27 63be b70d 1dbf
00000130: 7a37 9abd 6223 c0be a184 84be b149 f7be
00000140: c0a3 92bd 4557 e7be 041e c1be 223f 363e
00000150: 12e5 73be f98c 8abe de42 16be cf72 833d
00000160: 3405 04be 33ce c0bd f7e0 11be 87bd b1be
00000170: b8c4 81be 2bc3 e1be c30f 2abe 7f38 ee3d
00000180: 5fa2 d23d 2c59 41be 32d1 c4be d9c6 7e3b
-0.0494992 0.17616984 0.42927596 -0.060854703 -0.47242725 -0.24001035 0.06693446 -0.09685086
-0.17126036 0.225729 -0.41525114 -0.0732093 -0.2622158 -0.57435155 -0.14667241 -0.6827332
0.3103522 -0.21950252 -0.10206514 0.21915701 0.15268761 -0.22641045 0.07996718 -0.09723203
-0.08782033 -0.31280422 0.0953443 -0.14747949 -0.49821547 -0.17670813 0.1719742 -0.14462748
-0.27687547 0.17240824 0.015212322 0.01995875 -0.31136942 -0.3750253 -0.20978796 -0.44434163
0.2550889 -0.4346471 -0.7379908 -0.079182245 -0.27590632 -0.09785696 -0.5204813 -0.12302161
-0.111517504 0.1377552 -0.24614482 0.10446924 -0.36973912 -0.16362841 -0.12671761 -0.34573215
0.010462092 -0.30744332 -0.11571335 0.366592 -0.10073378 -0.20814003 -0.07436584 -0.12271741
0.062160805 0.3413278 -0.20176281 -0.142631 -0.1262971 -0.23327486 0.237812 -0.10574025
0.0716931 0.13810669 -0.22183055 -0.6134905 -0.075301126 -0.37526995 -0.25882438 -0.4829841
-0.07160139 -0.4518377 -0.37718213 0.17797521 -0.23817852 -0.2706068 -0.14673945 0.064183824
-0.1289261 -0.094143294 -0.14245974 -0.3471491 -0.25345397 -0.44094214 -0.16607575 0.116318695
0.10284876 -0.18881673 -0.38440853 0.0038875847

fc3.weight f4 [4, 100]
00000000: 013c b83e 1e1f 39bd dc65 39be 6fa7 163e
00000010: 7452 e23e 70b1 fdbd 4d1e c8bd 52a5 a53b
00000020: 6487 6fbe 8f2c 69bd 06d8 a13e a5f4 7b3d
00000030: 6c78 92bd 8268 023d 7fdd 9bbe 0d94 b53c
00000040: a8e0 5cbb ad9b 93bd cc6d 0c3e 8d50 fb3d
00000050: 6eab b23d 21d6 c03d bf2d 983c 4479 863e
00000060: 01d4 88be 0ce3 a33c a86e 493e c731 fe3b
00000070: 3c72 80bd 71fb e0bd b335 45be 6e78 ccbe
00000080: 452a 803e 2c55 173e 7693 10bd 6093 42bc
00000090: 3423 3c3e 52c5 fb3d 19cb 6ebe 2e1c 14be
000000a0: daa6 83be 6390 343b dc1a 58bc c6ca aabc
000000b0: f4be 11be 534b 0d3f 5158 97bc bbcc 863c
000000c0: 5530 adbd 62e8 573d 43ce 82bd 774c b73c
000000d0: 7d03 b03e ffba a13d c54a f33e 89f3 89be
000000e0: 66f6 b4be cdaa 9dbc 1aa2 203b e0f6 37be
000000f0: e8f9 09be d91c b53e 9c40 2bbc 53c2 7c3e
00000100: b353 c2bd ad1d 923e 1e20 443e c1a6 ae3b
00000110: d8d4 b8bd cda7 efbc 3534 01be 7e4c 413e
00000120: af6a 7d3e d3a3 17be 4c45 aabe d014 fcbe
00000130: de72 1bbd eec5 3cbe e5ab 02bf 1e97 1e3e
00000140: 1fd2 61be 3269 3dbe 01ac 13bd 1918 9c3e
00000150: 5f00 e0be fb9a b8bd 93fd 1abe f6f9 1e3e
00000160: bbea 603d f7a5 d13d b40b 2abe 537c babe
00000170: 8bd4 46be 04b9 7dbe 735d cbbd a4d6 06bf
00000180: 5f76 1ebe 9914 0b3d 490b 813e ec7d 20be
00000190: 914d 03be 6233 dbbc 9858 1f3e 3d3c 063c
000001a0: 8579 87be 78f9 cdbe c9d5 a6be 005f acbd
000001b0: a8cd 0e3e 1b52 40be 7f05 8e3e c28e a0bb
000001c0: 7064 603f 8b2a 8ebc f1be 5b3e 4ca3 283e
000001d0: 2ee2 95be 95e6 013f a295 d73e e602 4a3e
000001e0: 0afd d73e 5914 523b 0c6d 00be e27e 7ebe
000001f0: 6075 293c bf03 41bf 5af0 35bc b210 0a3d
00000200: 2905 4dbd b819 f63d b628 8bbd 257a 10be
00000210: ebb7 88bd 138d 813e a4a7 db3c e6af 84be
00000220: aadb a7be e1ca 50be f750 633e eb7b 903b
00000230: 6b57 91be 2100 093e 9dac 2a3e afd1 68be
00000240: f1f4 49be 5a48 a63e b5bc 803e dcef bdbe
00000250: e248 f93e d099 a1bd f200 883e 47c4 453f
00000260: 08c8 913c 5df8 943e 1358 6abe bb8e 6c3e
00000270: c400 163e 3625 28bd 25b5 a5bd c1d3 2abe
00000280: effc 343d 76a7 08be 00c6 bc3d cefe c2bc
00000290: 1949 383e e541 aa3e 36b3 17be 6e95 aabe
000002a0: d55a 333e fc95 b43e 5946 383e 4e4a 7f3d
000002b0: 2978 2ebe 64b8 06bf 2198 2bbe 0b6a 593e
000002c0: 7d54 003d 0782 77be 526f 413e 0498 93bd
000002d0: fc16 263e 6fe0 1abd df21 08be 72ed d83c
000002e0: 0df7 07be 4714 093e 0d15 ce3d 0d9b 3a3e
000002f0: d226 80bc 9da3 e5bd 6070 3f3e 3f28 2ebe
00000300: 9915 363e f98e 25be 20cc 4b3e 24ac e13b
00000310: 4902 70bd 183c 763d f363 05bf aa91 12be
00000320: 2d0e 54bc 69db 213d beac 02bc 575a 763d
00000330: db53 7b3d 88b4 ff3d 44ea 08bc af23 20bf
00000340: 099e c3bd 3f98 163c 09aa 8cbb a0d3 0ebf
00000350: ebd3 973d 71b5 04bc 477a 19be 3082 9f3d
00000360: ff5f d7bc 09e0 c63c 11b3 0e3d f007 35bc
00000370: 295a 04bd d0e5 7f3f 588a 923d 849a e13c
00000380: a524 91bc b64b 123d 9ce3 7dbd 377c 983c
00000390: 4036 2bbd ce65 1abe aba3 c83d a723 dfbd
000003a0: 5e2d dabf 6d0f 56bc e3d2 f0bd 52f2 253d
000003b0: 059b d93c dee3 eabd b0c4 0d3d 3d6a 07be
000003c0: b16b d03c d3e7 93bd 948c a23c ae8d 9e3d
000003d0: 272e 393b cf63 39bb 73c0 e23a 3380 943c
000003e0: c9a1 5e3e e098 093e 1403 81bc da2d 86bc
000003f0: e20f 27bc 39db c63c 4659 dfbc 9917 1a3d
0.3598328 -0.04519569 -0.18105263 0.14712308 0.44203532 -0.12387359 -0.097714044 0.005055108
-0.23391491 -0.05692726 0.31610125 0.061512608 -0.07151875 0.031837948 -0.30442426 0.022165323
-0.0033703241 -0.07207427 0.13713759 0.12271223 0.08724104 0.09415842 0.018576501 0.26264393
-0.26724246 0.020005725 0.19671118 0.0077573988 -0.062717885 -0.10985459 -0.19258766 -0.3993563
0.2503225 0.14778584 -0.03529688 -0.011875957 0.18372804 0.12293495 -0.23319663 -0.14463875
-0.25713235 0.0027551882 -0.0131899975 -0.020848643 -0.14232999 0.5519306 -0.01847473 0.016455045
-0.08456484 0.052711852 -0.063869976 0.022375328 0.3437766 0.07896995 0.47517982 -0.26943615
-0.35344237 -0.019246483 0.0024510683 -0.17965269 -0.13474238 0.35373572 -0.010452416 0.24683504
-0.094886206 0.28538266 0.19152877 0.005329937 -0.09024972 -0.029254818 -0.12617572 0.18876836
0.24747728 -0.14808588 -0.33255994 -0.4923463 -0.037951343 -0.18434879 -0.5104354 0.15487334
-0.22052811 -0.1849716 -0.036052708 0.30487135 -0.43750283 -0.09013935 -0.15135793 0.1552504
0.054911356 0.102367334 -0.16606027 -0.36422977 -0.19417016 -0.24777609 -0.099299334 -0.52671266
-0.15474842 0.03395519 0.25203922 -0.15673035 -0.12822558 -0.0267579 0.1556114 0.008193073
-0.264599 -0.40229392 -0.3258498 -0.08416557 0.13945639 -0.18781321 0.27738568 -0.0048998306
0.87653255 -0.01735427 0.21459557 0.16468543 -0.29274124 0.50742465 0.42106348 0.19727668
0.4218524 0.0032055585 -0.12541598 -0.2485309 0.010342926 -0.7539634 -0.011104668 0.03370733
-0.05005375 0.12016624 -0.06794874 -0.14109094 -0.066757046 0.25302944 0.026813336 -0.2591545
-0.32784778 -0.20389892 0.22198854 0.0044093034 -0.28387007 0.13378955 0.16667409 -0.22736238
-0.19722344 0.32477075 0.25143972 -0.3709706 0.48688418 -0.078906655 0.2656322 0.7725262
0.017795578 0.29095736 -0.2288516 0.23101322 0.1464873 -0.041051112 -0.08091191 -0.1668234
0.04418653 -0.13345131 0.09217453 -0.023803141 0.17996635 0.332534 -0.14814457 -0.3331713
0.17515118 0.3527068 0.17995586 0.06232672 -0.17038025 -0.5262511 -0.16757251 0.21231858
0.031330574 -0.24170695 0.18890122 -0.07206729 0.16219705 -0.037811693 -0.13294171 0.02648041
-0.13277836 0.13386641 0.10062609 0.1822321 -0.015643511 -0.112128474 0.18695211 -0.1700754
0.17781676 -0.16167821 0.19902086 0.006886976 -0.05859593 0.060115904 -0.52105635 -0.14313379
-0.012942833 0.039515886 -0.007975755 0.06014475 0.061359268 0.124856055 -0.0083566345 -0.6255445
-0.09551627 0.009191572 -0.0042927307 -0.55791664 0.07413467 -0.0080999 -0.14988051 0.07788503
-0.026290892 0.02427675 0.03483874 -0.011049256 -0.032312546 0.9996004 0.07155293 0.0275395
-0.017717669 0.035716735 -0.061984643 0.018613918 -0.041799784 -0.15077898 0.09796842 -0.10895472
-1.7045095 -0.013065201 -0.117589734 0.040514298 0.026563177 -0.114692435 0.034611404 -0.1322412
0.025441976 -0.07221951 0.019842423 0.07741867 0.0028256269 -0.002828825 0.0017299786 0.018127536
0.21741404 0.13437223 -0.015748538 -0.016379286 -0.010196658 0.024274455 -0.027264249 0.03762016

fc3.bias f4 [4]
00000000: dd62 ccbd fafa 79bc 1df7 233e f747 043d
-0.09979794 -0.015257591 0.16012235 0.032295194
