checkpoint_critic_multiple_agents.pth (torch_old, 110603 bytes, 5 tensors)

fcs1.weight f4 [200, 33]
000000 a3 f3 8d 3d b1 99 e3 3d 6b d9 57 bd ce f0 55 bc
       0.06931236 0.11113299 -0.05269758 -0.013057901
000010 2b 22 85 3b f2 d5 98 3b c5 a7 9a bd e7 85 88 bd
       0.004062911 0.004664176 -0.07551531 -0.06666165
000020 0f 05 80 3c 41 ef 96 bd 3d ab cb bc 9c 04 8e 3d
       0.015627412 -0.07369853 -0.024861926 0.06934473
000030 9e 06 14 bd 8d ba f0 bc 8c bf c2 3d 3a 16 8e bd
       -0.036139123 -0.02938583 0.09509191 -0.06937833
000040 37 85 77 3d e1 98 12 bc 9f 1b 68 3d 08 46 2e bd
       0.060429778 -0.008947582 0.056666967 -0.042547256
000050 bd 1d da bb 4d 02 ce bd 36 3b 62 bd 4a 06 5f bd
       -0.006656377 -0.100590326 -0.05523225 -0.054449357
000060 c1 df 79 3d bd 75 02 bd 84 66 00 3b aa e5 af 3d
       0.061004404 -0.031850565 0.0019592354 0.08588727
000070 81 db db 3c da 04 b6 bc 8a 79 c2 bd 30 f3 9a 3b
       0.026838066 -0.02221911 -0.09495838 0.0047286972
000080 7e 3d 0f bc 57 b7 39 bd 59 77 14 3c 1a d0 05 bd
       -0.008742688 -0.045340862 0.009061658 -0.032669164
000090 59 15 b5 3c 05 39 da bb af 3e 9e 3d 6e 28 cb 3b
       0.022104906 -0.0066596293 0.077268 0.006199888
0000a0 82 71 0f bd ea 88 4e 3d 5c dc d2 3c 7c d1 9b bc
       -0.03502036 0.05042354 0.025739841 -0.019020788
0000b0 46 8f 80 3d f0 0b fd 3b ab 84 8d bc a7 6a 30 bc
       0.06277327 0.0077223703 -0.017275175 -0.010767615
0000c0 9a 13 31 bd c7 8c 71 3d 63 2b 85 3c e6 d2 ba bd
       -0.043231584 0.058972146 0.01625604 -0.09122257
0000d0 dd 0f 0a 3d 44 df fa bc e9 98 f7 bd f3 79 f1 bc
       0.033706535 -0.03062404 -0.12089712 -0.029477095
0000e0 c0 99 94 3d 66 bf 34 bd 11 09 55 bc 39 e4 6a 3d
       0.07255888 -0.044127844 -0.01300265 0.057346556
0000f0 d1 64 d3 bb 49 44 7f 3d 8c 88 b5 bc be 2b 60 bd
       -0.0064512272 0.06232098 -0.022159837 -0.054729216
000100 5c 23 46 bd d2 7e cd 3d 59 88 10 3b 86 5f f8 3c
       -0.048373565 0.10033955 0.0022053926 0.030318987
000110 1d cb 9c bc a3 30 1a 3c 04 2f 9c 3d 91 94 cf 3d
       -0.01913982 0.00941101 0.07626155 0.10135759
000120 4a b6 c1 bc a8 d4 ec bb 4e b2 06 3d 99 9a 85 bd
       -0.023646493 -0.007227499 0.03288489 -0.06523628
000130 23 66 c8 bd 24 11 26 3d 04 83 76 3d 62 c6 0c 3d
       -0.09785106 0.04054369 0.06018354 0.03436888
000140 40 74 4d bc 30 a4 7e 3d d6 84 2f bd 4c b2 f3 bc
       -0.012539923 0.0621683 -0.04285129 -0.029748105
000150 29 15 b0 3d 01 bf 2e bd 1c 95 02 bc e6 a3 43 3d
       0.08597786 -0.042662624 -0.007970121 0.047763728
000160 3c f6 56 3d f6 4f ba 3d 7d 5d 5b bd 54 1d 73 bd
       0.05248092 0.090972826 -0.053555954 -0.05935414
000170 46 d2 36 bb ed ec df 3c 0a 98 6a bd c8 f2 33 3c
       -0.0027896329 0.027334655 -0.057273902 0.0109831765
000180 d5 e0 bc bc 04 7f 56 bd 31 e8 11 be a3 a3 88 3d
       -0.023056427 -0.052367225 -0.1424873 0.06671836
000190 83 b9 cd bc 41 fb 01 be 88 61 91 ba c0 27 b9 3b
       -0.025112873 -0.12693502 -0.0011091689 0.0056504905
0001a0 bd 1e 87 bd 72 00 5c 3c ab 13 3a 3c 43 a3 d8 3c
       -0.0659766 0.013427841 0.011357228 0.026445037
0001b0 be e5 77 3d 17 16 35 3c e3 ce 08 3d 76 c6 0a bd
       0.060521834 0.01105263 0.033400428 -0.033880673
0001c0 92 01 6c 3d 37 21 9e bd ac e2 65 3d e3 10 3e 3d
       0.057618685 -0.07721179 0.056124374 0.046402823
0001d0 7a e8 4b 3d a3 4f 2b bd bc 14 23 3a 6c 2e b7 bc
       0.049782254 -0.041823994 0.0006221046 -0.022361003
0001e0 f7 96 d7 bb dc 93 38 3b 8b 40 55 3d 99 c0 10 bd
       -0.0065792757 0.0028164303 0.052063506 -0.035339925
0001f0 d0 aa e6 bb fd ab e6 bd 87 05 4a bc 49 8d 0c bc
       -0.0070394054 -0.11263273 -0.012330419 -0.008578607
000200 97 c9 88 3d 1e 50 3c 3d d6 dd e1 bc 62 f4 0d 3c
       0.06679075 0.045974843 -0.0275716 0.008664222
000210 5c be 2a be 60 70 be 3c 8d 6b 9c bd 19 7a a9 bd
       -0.16674179 0.023246944 -0.07637701 -0.082752414
000220 49 e9 96 bd 50 d0 64 3c d7 fe 24 bd 85 25 66 3c
       -0.07368714 0.013965681 -0.040282097 0.014047031
000230 f1 48 65 bd 34 31 4b bd 3f b2 37 3c cf 38 24 bd
       -0.055977765 -0.04960747 0.011211931 -0.04009324
000240 b8 0a 7a bc 77 11 89 3d 6a 68 29 bd af d7 46 3d
       -0.015261345 0.06692784 -0.041359343 0.048545536
000250 d6 42 99 3d 9e a6 62 3d 3f a9 14 3c 21 c7 a2 bd
       0.07483451 0.05533468 0.009073555 -0.07948137
000260 6f 7e 4a bd 91 ec 8f bc 45 d9 10 bd 1d 00 c5 3c
       -0.049436983 -0.017568858 -0.035363454 0.024047906
000270 b8 04 4a 3b df 56 2f 3c 2e c0 47 3d d8 c2 7c 3d
       0.0030825567 0.010701864 0.04876726 0.061709255
000280 9c 91 73 3d fc 67 55 3d a9 90 69 3d 96 2b 73 3d
       0.059465036 0.05210112 0.057022724 0.05936774
000290 81 5f 46 3e 9c 47 a2 bd 9c ca 3b 3d 7c 3d 99 3d
       0.1937237 -0.07923815 0.04584752 0.0748243
0002a0 ef e3 35 bd a6 7c c1 bb 23 7f 97 bb 42 0a dd 3c
       -0.044406828 -0.005904752 -0.00462331 0.02698243
0002b0 ef bc f3 bc f9 1b 4b bc 09 d3 83 3c 4c 23 17 bc
       -0.029753176 -0.012396806 0.01609184 -0.009224724
0002c0 60 52 c4 3c 8d 90 90 bc 2c 8b e9 3d 6d bf 5f bb
       0.02396506 -0.017647052 0.11403498 -0.0034141198
0002d0 2e 34 e7 bd 08 6c 36 3d 58 4a 13 3c 19 8f 01 3d
       -0.11289249 0.04453662 0.008989893 0.03163061
0002e0 1d 5a a4 3c 72 bd 0d 3b 8f 8b c6 3b 57 d7 17 3c
       0.0200625 0.002162781 0.006059117 0.00926765
0002f0 cd 03 d7 3b 15 ca 02 3b 41 27 e9 bc 95 a8 c1 bd
       0.0065617324 0.0019956876 -0.0284611 -0.094559826
000300 42 c6 b6 3d 69 a9 7c 3d 68 19 02 3d 7c 4e b1 bc
       0.089245334 0.061685 0.03176251 -0.02164387
000310 b0 e2 86 3c 02 6c fd 3e 64 95 09 bd 63 83 ab bd
       0.016465515 0.49496466 -0.033589736 -0.083746694
000320 54 3f 7b bd 34 45 61 3c 22 8f 85 3c 6b 5a 69 3c
       -0.06133969 0.0137494095 0.016303603 0.014242749
000330 f6 e5 e8 3c 83 91 96 b9 34 68 a4 bd 81 10 cf bc
       0.028429966 -0.00028718644 -0.08027688 -0.025276424
000340 84 8c 9d 3b 56 21 1e 3b d0 51 b1 bc d1 fd 79 3d
       0.0048080105 0.0024128756 -0.021645457 0.061033074
000350 7d 59 05 3e 26 bc 03 3e ff bb 05 bd b0 ae b3 bc
       0.13022418 0.12864742 -0.03264999 -0.021933883
000360 3b 54 a2 bb 52 a0 f7 bc f2 e8 d9 bc 3b 3a 27 3c
       -0.0049538887 -0.030227814 -0.026600335 0.010206754
000370 b0 0c a1 3c f4 f6 a2 bb 65 2a 16 3d b2 9e b3 3c
       0.01965937 -0.0049732868 0.036661524 0.021926258
000380 0f 86 60 bd 19 f0 d2 bd 5f 64 da bd 22 b6 23 3d
       -0.05481535 -0.10299701 -0.106636755 0.039968617
000390 66 cc 8c 3c b8 c6 5e 3c c6 b2 1e 3d ae 9f 4a 3d
       0.017187309 0.013597183 0.03874471 0.04946869
0003a0 1e 2d 5e bc 01 9f 59 3d 2c 9c ca 3d cf 75 f3 bc
       -0.013560561 0.053130154 0.09893069 -0.029719261
0003b0 83 01 1b 3d 45 69 52 3b 74 2f 27 bd 7a 7b cb 3d
       0.03784324 0.0032106203 -0.04081674 0.09935661
0003c0 36 03 1d 3e 1d 3d 7d 3d 17 b7 9d bb 3e 7f 3c bc
       0.15333256 0.06182586 -0.004813086 -0.011504946
0003d0 4d 90 09 3e 62 c2 fb 3d 19 f4 c2 3b a5 55 d5 3c
       0.13433953 0.12292935 0.005949509 0.026041815
0003e0 34 ba 02 3d aa e8 57 bd 7c 51 69 bd 9f a7 b0 bc
       0.03191586 -0.05271212 -0.056962475 -0.021564303
0003f0 10 43 ab 3a fe 8e 05 3d ae 3a fc bb c7 6a 95 3c
       0.0013066251 0.03260707 -0.007697425 0.018239392

fcs1.bias f4 [200]
000000 57 d1 39 3c 1e 35 35 bd 91 d7 34 be fc fb 18 3e
       0.011341414 -0.04424011 -0.17660357 0.14939874
000010 3b 89 94 bd 4c 37 67 bd 38 b0 45 3c 30 0d 1c bd
       -0.07252737 -0.05644922 0.01206594 -0.038098514
000020 62 5b ea bd 1f 9e 3b 3d 38 99 b8 bd bd cb cf 3d
       -0.11443211 0.045805093 -0.09013599 0.10146282
000030 09 0a f0 3d 73 34 08 bc 0d 78 62 3d d6 6d 23 bd
       0.11720664 -0.008313286 0.05529027 -0.03989967
000040 f0 b1 1b be 43 44 f9 bd e0 2c fd bd 61 b0 c4 bd
       -0.15204597 -0.12171223 -0.12362075 -0.09603954
000050 a5 3f 06 3c d7 1f 61 bd 71 89 3d be 0e 3d df 3c
       0.008193885 -0.054962005 -0.18509461 0.027250793
000060 ed 3c 07 3e 1b 80 31 3e 5d d1 1f bd 59 7b ac bc
       0.13206835 0.17334025 -0.039018024 -0.02105491
000070 d2 15 08 3e 4a cf 11 be e5 38 70 3d 38 a9 f3 3d
       0.13289574 -0.14239231 0.05864801 0.1189751
000080 43 22 a2 3d 0c 50 05 3b 7b 31 cb 3c 2a a8 03 3e
       0.07916691 0.00203419 0.024803868 0.12857118
000090 ec 40 10 3d 76 a6 9d 3d 88 e7 13 3e a1 d9 02 3e
       0.035218164 0.076977655 0.14443791 0.12778331
0000a0 09 b1 fd bd 8b 0b b1 3d 13 54 1e bd 44 f3 21 bd
       -0.123872824 0.0864478 -0.0386544 -0.039538637
0000b0 30 f4 02 3e 4b 66 16 bd d8 97 a4 3d 17 fb 4d bd
       0.12788463 -0.036718648 0.080367744 -0.050288286
0000c0 32 6f 18 be 15 6c 4a bd be 6f 42 3e 75 27 9c 3d
       -0.14886168 -0.04941948 0.18987939 0.07624713
0000d0 a5 2d 21 bd c3 e6 3d 3e 4a 33 ab 3d b1 a4 19 3e
       -0.03935017 0.1854506 0.08359392 0.15004231
0000e0 f9 54 ca 3d bc 74 08 bd 27 57 0a 3e 49 41 43 bd
       0.098794885 -0.03331445 0.13509808 -0.047669683
0000f0 3e 13 31 3d cb d5 e3 3c 07 6d 18 3d ef 11 b2 bb
       0.04323124 0.027811905 0.03721335 -0.0054342668
000100 96 3a 35 be e3 b3 5e bd 35 33 4f 3e a5 45 68 3b
       -0.1769813 -0.054370772 0.20234378 0.0035441902
000110 f1 ed 2c be 47 f7 c5 3c 9e 69 86 bd 87 40 52 bc
       -0.16887642 0.024165763 -0.06563114 -0.012832767
000120 15 ad 09 be 72 05 91 3d e6 13 1b be d4 ef 5b 3d
       -0.13444932 0.07081117 -0.1514431 0.053695515
000130 3a 9b 1e 3e 2d 4d 24 3e 82 ea e3 bc 60 8a 31 3e
       0.15488902 0.16045065 -0.027821783 0.17337942
000140 8e c1 8e bd 89 81 0c bd 67 e9 92 3d bd 79 10 bd
       -0.069705114 -0.03430322 0.07173424 -0.03527235
000150 cf 69 23 be 2f 00 cb 3c e7 11 e2 3d a8 e1 99 3d
       -0.15958332 0.024780361 0.11038571 0.07513744
000160 88 93 3f bd c1 e8 2f be c4 18 36 3e 64 1e 06 be
       -0.046771556 -0.17178632 0.17782885 -0.1309753
000170 85 e0 95 3d 73 39 62 be 60 59 01 3e b2 1b 90 bc
       0.07318214 -0.22092228 0.1263175 -0.017591331
000180 34 f9 4c 3e 4e 5d 44 3d da 22 1c be 72 bd 1e 3e
       0.20016938 0.047940545 -0.1524767 0.15501955
000190 57 df 1f be ca 13 c4 bd c8 d3 df 3d 90 40 39 be
       -0.15612541 -0.09574087 0.10929066 -0.18091035
0001a0 24 9e 2f bd 5e 25 6e 3b 7a ce 62 bd 4d 03 7a bd
       -0.042875424 0.003633819 -0.055372693 -0.061038304
0001b0 52 5c 0d 3e b9 7a 7f 3c 15 ff cc bc 39 05 1f bc
       0.13804749 0.015593224 -0.025023976 -0.009705835
0001c0 be f7 97 bd 54 d2 ed bc 83 77 35 3e 49 56 39 be
       -0.074203 -0.029030956 0.17721371 -0.18099321
0001d0 54 66 ac bc 74 5f 55 be eb 52 05 be df f2 c0 bb
       -0.021044888 -0.20837194 -0.13019912 -0.0058883275
0001e0 d5 c6 a1 bd d3 6e f0 3c ea c1 fb 3d 87 63 01 3d
       -0.07899252 0.02934972 0.122928455 0.031589057
0001f0 c2 0c 3a 3e 13 21 23 3d bb 98 33 3e 6d cf 54 3d
       0.18168929 0.039826464 0.17538731 0.05195563
000200 ee a1 5b bd 62 df 2d bc d7 a3 b4 bd bf 68 e4 3d
       -0.053621225 -0.010612341 -0.088203125 0.11152791
000210 78 57 08 3e a0 50 3a be d4 a8 2e be 50 d7 c9 3d
       0.13314617 -0.18194818 -0.1705659 0.09855521
000220 3d e9 32 3d 82 80 a9 bd df 09 c9 bd cc de d0 ba
       0.043679465 -0.08276464 -0.09816336 -0.0015935539
000230 c1 cb 0f be 6c 78 30 3e 6b f4 97 bd 76 8f 2e 3c
       -0.1404257 0.17233437 -0.07419666 0.010654321
000240 91 dd 8b 3c 7a 8b df bd de 69 e0 bc b9 71 cf 3a
       0.017073425 -0.10915275 -0.027394231 0.0015826739
000250 60 cc 18 3e ee a8 3d 3e 1b a7 8d bd 24 81 18 be
       0.14921713 0.18521473 -0.069166385 -0.14893013
000260 c2 ae e1 bd a9 df 20 be d6 1e 35 3e ec cd 1d 3e
       -0.110196605 -0.1571032 0.17687544 0.15410584
000270 04 70 1a bd 00 05 c0 bd 2d 1d 2c 3d 89 96 91 bd
       -0.037704483 -0.09375954 0.04202001 -0.071087904
000280 a7 53 ce 3d 89 87 ea 3c 39 83 33 3e 94 42 13 3d
       0.10074549 0.028629081 0.17530526 0.035952166
000290 03 1c 01 3d 6b 4e 13 3d 69 72 18 3d b7 bd 09 3e
       0.031520855 0.035963457 0.037218485 0.13451277
0002a0 32 33 d6 bb b1 bb 1a bd ec 3c 15 3b 52 28 2f 3e
       -0.0065368647 -0.037776653 0.0022771908 0.17105225
0002b0 e1 1a 8b bd da c2 74 3c d2 ee 65 bc b3 fe 55 3c
       -0.06792236 0.014939034 -0.01403399 0.013061213
0002c0 5a 36 9b bd d0 ef d0 bd 86 b3 24 bc 85 e8 fe bc
       -0.07578726 -0.102019906 -0.010052567 -0.031116733
0002d0 d7 14 4c be c8 eb 79 3d bb 49 36 be 62 9c 9e bd
       -0.19929825 0.061015874 -0.17801563 -0.077446714
0002e0 b2 05 af 3c bf 2f 23 3e dd 8c b3 bc bb e8 c5 bc
       0.02136502 0.15936182 -0.021917755 -0.024158826
0002f0 cb e2 07 bd 71 1a bd ba 5d 8b 7d bc 85 21 9c bc
       -0.03317527 -0.0014427436 -0.015475121 -0.019058952
000300 5e af 70 3d b4 7e 60 3e 81 7a 1d 3e 17 bd c5 bc
       0.058760993 0.21923333 0.15378763 -0.024138017
000310 67 59 dc 3c b8 bc 40 3d 28 3d 37 3d d6 6e da bd
       0.0268981 0.047054976 0.044736058 -0.106656715

fc2.weight f4 [100, 204]
000000 6a 3f d0 bc c4 f6 7b 3d fe 40 cc 3c a1 61 e1 bd
       -0.025420863 0.06151463 0.024933334 -0.11004949
000010 5a f3 ae bd b1 e5 01 be 06 4d 85 be 37 2b bc bc
       -0.085425094 -0.12685277 -0.26035327 -0.022969825
000020 f3 e2 a8 3c 42 de 1d 3e 69 eb 9d 3a b4 9e 4c be
       0.02061603 0.15416816 0.0012048307 -0.19982415
000030 5e 9d 9e 3c 21 f7 1a 3d 9a c5 b9 3d da 29 66 bd
       0.019362148 0.037833337 0.09070893 -0.056192257
000040 e8 ae 15 3e a7 06 58 be 18 6e a1 bd 5f f4 b7 bd
       0.14617503 -0.21096288 -0.07882327 -0.08982157
000050 fb f0 b8 3c 69 85 54 bd f0 4f a8 bd 75 82 9a 3c
       0.022575846 -0.051885042 -0.08218372 0.018861035
000060 b4 a2 d2 3d cf 6b d3 bd c0 de 36 3c f0 ed db bd
       0.102849394 -0.10323297 0.011161506 -0.10738742
000070 f4 5f 9d bc cb cd f3 3c c9 3c b0 3c 2b b4 4a bb
       -0.019210793 0.029761216 0.02151336 -0.0030930142
000080 12 78 ea bc aa d1 20 3d 40 c1 fc bc 9f f8 1b 3d
       -0.028621707 0.03926245 -0.030853868 0.0380789
000090 f1 3d ae bd cb d8 ec 3c d4 3c c5 bd 74 49 91 3d
       -0.08507908 0.028911969 -0.09630743 0.07094088
0000a0 7d 05 70 3d 5a 68 03 3e f6 56 98 3d 7c 82 68 3d
       0.058598984 0.12832776 0.074384615 0.056765065
0000b0 47 3a 96 3d 41 18 16 3d fb dd 99 be 79 83 3d 3d
       0.07335334 0.036644224 -0.3005217 0.04626796
0000c0 72 ec 3e bd 6f a3 5a bc 7c a0 9b ba 7b fd e0 bd
       -0.04661221 -0.01334463 -0.001187339 -0.109858476
0000d0 ba 22 89 3d 0b fd 80 bc ca fc 31 bd 9c 32 1f 3d
       0.06696077 -0.01574566 -0.04345397 0.038866624
0000e0 01 c2 56 3d 26 2d 36 3e f1 2e 60 bc 94 05 9b bb
       0.05243111 0.1779066 -0.013683067 -0.0047308896
0000f0 68 89 5f 3c 6d 0b 02 3e 52 1e 16 bd 27 22 6c be
       0.0136436 0.12699671 -0.03665001 -0.23059903
000100 ab 46 8e bd 72 ad bc 3d 83 ce 9f 3d fe 25 26 be
       -0.069470726 0.092127696 0.07803061 -0.1622543
000110 2f 36 b7 3c a0 42 7e bc a7 04 a6 bd c5 30 d0 bd
       0.022364704 -0.015518814 -0.08106356 -0.10165552
000120 e9 9f df 3c b5 a8 9b 3d db 44 26 be d5 8a e9 3d
       0.02729793 0.07600538 -0.16237204 0.11403433
000130 0e 2c e6 bd 44 37 81 be 5f fa 71 3d 3e 0c 08 3c
       -0.112388715 -0.25237477 0.059076663 0.0083037
000140 39 e7 28 3d a1 a2 1b be ff 50 c4 bd 88 8d 84 3d
       0.041236136 -0.15198757 -0.09585761 0.064723074
000150 20 48 68 be 6f a3 9e bc d7 31 09 bb 39 29 92 bd
       -0.22683764 -0.01936504 -0.0020934248 -0.07136769
000160 e2 7d 6e bd 85 4d ae bd 2b 94 14 3d 31 5f 5d bd
       -0.05822552 -0.085108794 0.036274116 -0.05404586
000170 a7 bf 76 bd 18 69 42 be 33 fb 4a bd 02 c9 a0 3b
       -0.060241368 -0.18985403 -0.04955597 0.0049067745
000180 63 26 08 3d f1 2c 11 bc 3e 1d 1d 3e 91 a5 aa bc
       0.033239733 -0.0088608125 0.15343186 -0.020830901
000190 95 fb 93 3d af 88 63 3b cd 01 e7 bc 41 8f 77 bd
       0.0722572 0.003471892 -0.0281991 -0.060439352
0001a0 dc b8 c9 bc ee a5 70 bd 20 2f be 3d a1 45 1e 3c
       -0.02462428 -0.058751993 0.09286332 0.0096601555
0001b0 f3 e5 51 3c 20 c3 38 bd 59 12 d0 bd c9 ab 47 be
       0.012811172 -0.04510796 -0.101597495 -0.19499125
0001c0 f1 33 7a 3d 2f 31 64 bd e0 6d b4 3d 15 5e 7e 3d
       0.06108469 -0.055710968 0.088100195 0.062101442
0001d0 1a e9 8e 3d 8d 4c c0 3d c2 6a df bd d4 29 97 3d
       0.06978054 0.09389601 -0.10909034 0.07381025
0001e0 54 e2 ec bd 48 9b 37 bd 2b 0a 4d bd 3a ca 65 3b
       -0.11566606 -0.044825822 -0.050058525 0.0035063163
0001f0 8a 10 15 bd 0f 80 3f 3d 17 d7 be 3d 2b ac e2 bd
       -0.036392726 0.046752986 0.09318369 -0.11067995
000200 e5 2d 8d bd 19 18 a1 3d d9 f4 b6 bd 36 cf 10 bc
       -0.06893519 0.078659244 -0.0893342 -0.008838465
000210 32 bc c6 bd 2a fd f7 3d a3 53 9b bd c9 fa 70 3d
       -0.09703864 0.12108834 -0.07584312 0.058832917
000220 f7 31 98 3d 3a c6 c9 bd 6e dc 92 be 91 25 35 3d
       0.07431405 -0.09852262 -0.286838 0.04422528
000230 0a 2c 92 bd 96 e1 01 3d 67 d8 23 3c 10 59 ea 3c
       -0.07137306 0.031709276 0.010000325 0.028606921
000240 45 1b b9 3d ea 89 01 3d f0 68 3b 3b 0e d9 9f bd
       0.090384044 0.031625666 0.0028596483 -0.07805072
000250 4f b8 8e 3c 3e f9 6c bd 1f e6 02 3d f7 11 2a 3a
       0.01742187 -0.057854883 0.03195774 0.00064876623
000260 04 32 ec ba 80 08 d1 3d e5 ee 72 bd f9 03 cf 3d
       -0.0018020277 0.10206699 -0.05930986 0.101081796
000270 40 df e6 3d 66 15 b0 3d bc 25 c5 bc 69 2e 5b 3d
       0.1127305 0.085978314 -0.024065845 0.053511057
000280 1b 78 92 3d 40 9a 07 be fc 27 19 bd 4e c5 88 bd
       0.071518146 -0.13242435 -0.037391648 -0.06678258
000290 31 90 be 3d df 27 0d 3d 4f 11 74 3d f5 ac fb bd
       0.09304846 0.034461852 0.05958682 -0.12288848
0002a0 88 84 f0 bd 62 b2 e4 3b 92 c7 6a bd a7 d7 5f bd
       -0.11744028 0.0069792727 -0.05731923 -0.05464902
0002b0 dd 12 5c 3c e6 96 0a 3e 44 df 41 bd 65 1b cb 3c
       0.013432232 0.13534126 -0.047332063 0.024793336
0002c0 71 2b 03 3d 63 72 a6 3d d4 61 19 bd 06 fe a5 bd
       0.03202385 0.08127286 -0.03744681 -0.08105092
0002d0 0e 76 11 be 44 3e 00 be 86 c4 2f be 3e 52 00 3d
       -0.1420519 -0.12523752 -0.17164811 0.031328432
0002e0 2b 49 41 3d ce 1f ba bd e9 8e fd bc f3 e8 c8 bd
       0.04718892 -0.090880975 -0.030951934 -0.098100565
0002f0 d7 21 4d be f2 0a 71 bd 38 03 d8 3d fb 68 62 bd
       -0.2003244 -0.05884833 0.10547489 -0.0552759
000300 f8 57 68 bd 92 d7 8f 3c 72 a7 dd bd 6d 7d 8f 3d
       -0.05672452 0.017558847 -0.10822953 0.07006345
000310 90 cc 48 bd 9a 8c 19 be 89 1e ad bd 7a 76 63 3d
       -0.04902321 -0.14995041 -0.0845309 0.05553291
000320 7d 7a 16 3d 0f 64 53 bc 76 c7 4b bb 9b 88 61 3c
       0.036737908 -0.012902274 -0.003109423 0.013765479
000330 14 cc 0d be 21 53 c4 3d b9 46 b7 bd 19 ee b6 bc
       -0.13847381 0.09586168 -0.08949036 -0.02233033
000340 fb f1 36 3d 9d be 36 be 45 11 90 3b 5b 1b f7 3d
       0.044664364 -0.1784615 0.00439659 0.120657645
000350 e6 af 26 bd 58 56 c2 bd c1 40 49 3d 9a 94 1a 3d
       -0.040695094 -0.09489125 0.04913402 0.037739374
000360 f2 a9 aa 3d 77 c6 22 bd 4f e9 7e bd f4 b3 cd 3d
       0.08333196 -0.039740052 -0.06223422 0.10044089
000370 bc 4d 32 be 56 91 ab bd de ec 6b 3d 2f ea 73 3d
       -0.17412466 -0.0837733 0.05759894 0.059549507
000380 64 f2 f3 bd 66 ed 0e 3d 54 f1 9f 3d 37 f6 ab bd
       -0.11911467 0.03489437 0.078097016 -0.08396571
000390 25 67 68 3d 3d 61 3e bd 1c 31 73 bd 69 0d 4c 3d
       0.05673899 -0.046479452 -0.059373006 0.049817476
0003a0 da ee 16 3d 8f a9 83 bb d2 4b 66 3c f8 88 77 3d
       0.03684888 -0.0040180157 0.014056163 0.060433358
0003b0 cb 5d cf bd 7b 14 c4 bd b6 18 d0 bb 1e 13 f6 bd
       -0.101253115 -0.09574219 -0.006350602 -0.12015365
0003c0 af a8 d0 3b 08 28 5e 3d bc a4 03 be 29 99 0b 3c
       0.006367765 0.054237396 -0.1285581 0.008520403
0003d0 9c 2e 8f bd 3c c7 6f 3d a7 42 07 3e 99 8a 84 bc
       -0.06991312 0.058539614 0.1320902 -0.01617937
0003e0 8f dc 5c bd fa 05 ca bc 53 ee 16 bd ef 4b 16 be
       -0.05392128 -0.024661053 -0.036848377 -0.14677404
0003f0 58 e1 cc bd 2a f7 30 bd 3a f3 2e bb de 2d 52 bc
       -0.100039184 -0.043204464 -0.0026695267 -0.012828318

fc2.bias f4 [100]
000000 07 4c 4d 3c 42 bb bd bc f2 90 86 bc 1a 4a 86 bd
       0.012530333 -0.02316058 -0.016426537 -0.065571025
000010 f0 84 a0 3d 60 af 8a bd 3d fe ac 3c 07 ba b9 bd
       0.07837856 -0.067717314 0.021117324 -0.09068685
000020 85 8a 8f bd c6 88 b1 bc 08 ed 99 3b c0 cb 2f 3b
       -0.070088424 -0.021671664 0.004697446 0.0026824325
000030 0c 73 cc 3d 21 76 1d bc 88 19 5e 3d f5 53 1e 3d
       0.09982881 -0.009610684 0.054223567 0.038654286
000040 66 39 13 bd 8b 4a 14 3e 62 36 50 3d f5 cb be 3d
       -0.03594341 0.14481561 0.050833113 0.093162455
000050 6c 25 15 bd c2 82 97 bd c3 9b 09 bd 36 8f 30 3e
       -0.03641264 -0.07397987 -0.03359581 0.1724213
000060 44 98 5b 3c 18 9d e1 bb 48 16 cc 3d 0a a2 7c 3d
       0.013403002 -0.006885182 0.09965187 0.06167797
000070 72 46 8c bd a6 69 3e bc 01 cc 99 bd eb 9f f7 bc
       -0.06849374 -0.011621868 -0.07509614 -0.030227622
000080 9c db c0 3d 62 4d b4 bd 5f 2c b6 3c 10 07 94 bd
       0.09416887 -0.08803822 0.022237955 -0.072279096
000090 4e 02 35 3c f2 ca f5 3d 17 8c 87 3d bb 2a 44 3e
       0.011047913 0.12001599 0.06618517 0.19156925
0000a0 03 cb 9c 3c bb ab e3 3c 21 45 8e 3d eb 3a 72 bd
       0.019139772 0.027791848 0.06946779 -0.05913822
0000b0 14 72 a7 bd 8f 81 ca 3d 6d a3 28 3c b9 46 7f 3c
       -0.081760556 0.098879926 0.01029287 0.015580826
0000c0 e2 84 a6 bd b6 36 bb bd 37 16 38 3d a8 7c 45 bd
       -0.08130814 -0.09141295 0.04494306 -0.048214585
0000d0 59 64 21 3d 35 78 a6 bd 00 45 82 3c 3f 9c 5a bc
       0.03940234 -0.081283964 0.015902042 -0.013342916
0000e0 6a 4c b1 3d bb 90 9d 3d 24 40 e6 3c d4 b6 4d bd
       0.08657153 0.07693621 0.028106757 -0.050223187
0000f0 5c ec db bd 00 fb b3 bd a0 7f 90 3c 18 73 ae 3d
       -0.10738441 -0.08788109 0.017638981 0.08518046
000100 60 4c 04 bc 3a e5 e5 3c c1 4c cf bc dc 1a 9a bd
       -0.00807485 0.028063405 -0.025305154 -0.07524654
000110 d4 dd eb 3b d7 27 5b 3c 63 b7 0d 3c 1c 09 34 3c
       0.007198075 0.013376198 0.00864968 0.0109885
000120 94 a5 01 bd db d6 2d 3e 67 80 d1 bc f0 2d e0 bd
       -0.03165205 0.16976492 -0.025573922 -0.10946262
000130 31 b2 bf 3d 79 cc 39 3c 6f a5 68 3d 0c b9 6a bd
       0.09360159 0.011340254 0.056798395 -0.05730538
000140 e4 9f 8c 3d 6f a2 0c 3d ac e0 ce 3d 26 40 62 3c
       0.06866434 0.034334596 0.101014465 0.0138092395
000150 95 66 4b 3c 5c fe 09 3e 46 b9 f1 3d e9 55 a1 3c
       0.012414594 0.13475937 0.11802916 0.019694285
000160 78 a1 e1 3d 91 df a0 bd 97 38 be 3d b0 fb 84 bc
       0.11017126 -0.07855142 0.092881374 -0.016233295
000170 e1 bd d0 3b 92 b1 a5 bc 50 19 4d bd 6f e0 3f bd
       0.0063702916 -0.020226274 -0.050072968 -0.046844896
000180 13 65 1e 3d 83 9a 3f 3e 45 c2 27 3d a9 39 0b 3e
       0.03867061 0.18711285 0.040956754 0.13596214

fc3.weight f4 [1, 100]
000000 a3 9d 28 be a5 e9 aa bd 03 a5 f6 bd 71 1e 05 be
       -0.16466384 -0.083453454 -0.12043192 -0.12999894
000010 e4 ec 29 3e 29 2b 94 bd 8d 19 a4 bd 56 65 d9 bd
       0.16594273 -0.07234795 -0.08012686 -0.106150314
000020 1b 26 a1 3d 0e a8 bb bd a3 ed d5 3d 52 60 06 be
       0.07868596 -0.09162913 0.10445716 -0.13122681
000030 dc f4 0b 3e 2d 24 48 be 78 c1 07 3e 02 04 a8 bd
       0.13667625 -0.1954505 0.13257396 -0.082038894
000040 14 92 ac 3d e7 bb a3 3d 61 a3 dc 3d 84 5e a3 3d
       0.084263 0.07994824 0.107733496 0.07977012
000050 65 44 9f bd 83 1c d9 bd df f0 08 3e 0e 1d 85 3d
       -0.07776717 -0.10601141 0.13373135 0.06499682
000060 64 37 42 be 6f 9a c9 bd 94 27 dc 3d 27 27 92 3d
       -0.18966442 -0.09843909 0.107497364 0.07136374
000070 70 6f 7d bd 9a 02 9c 3d bf d3 2c be ef b7 32 be
       -0.061873853 0.07617684 -0.1687765 -0.17452978
000080 a7 ca c5 3d b7 07 d6 bd 0d b0 93 bd 41 68 82 bd
       0.096577935 -0.1045069 -0.072113134 -0.06367541
000090 b7 72 1f 3e ad e0 9d 3d 56 6f c0 3d ce 98 ea 3d
       0.15571104 0.07708869 0.09396236 0.114549264
0000a0 cd 19 56 bd 7e b2 8e 3d a8 15 38 3e 6a ce b2 bd
       -0.0522707 0.069676384 0.17977011 -0.087307766
0000b0 47 6b 55 be 1f e9 a6 3d 6c ac 91 3d 78 1d d9 bd
       -0.20841704 0.08149933 0.07112965 -0.10601324
0000c0 89 ca 55 be 26 0b 22 be bd 2b 20 3e 89 e2 01 be
       -0.20878042 -0.15824565 0.15641685 -0.12684073
0000d0 52 d5 88 3d 36 2f d8 bd 92 c1 0e be cf ab 45 be
       0.066813126 -0.1055588 -0.13941029 -0.19303821
0000e0 9f d7 b0 3d 0a c3 96 3d ba 08 91 3d ed 70 b6 3d
       0.086348765 0.073614195 0.070817426 0.08908258
0000f0 ea 11 08 be 75 f9 fb bd a1 d6 2a be 3c dc ea 3d
       -0.13288084 -0.123034395 -0.16683437 0.114677876
000100 cf 0a b3 3d e4 8e 0d be 78 d9 b9 bd 9d 04 7b bd
       0.08742296 -0.1382404 -0.09074682 -0.061283696
000110 1e 6a ac bd 8b 8a 9f bd 03 82 f5 3d a0 88 e8 bd
       -0.08418678 -0.07790097 0.119876884 -0.11354184
000120 e8 70 84 3d b3 d0 15 3e b5 50 e6 bd 1a 2a 8a bd
       0.06466848 0.14630394 -0.112458624 -0.067463115
000130 bf bc 1f 3e e1 99 d5 3d 67 da cb 3d 1e 6e c2 bd
       0.15599345 0.10429741 0.09953766 -0.094936594
000140 3e 80 80 3d c7 82 5c be 4f a6 c9 3d 97 86 49 be
       0.0627446 -0.21534263 0.09846174 -0.19680248
000150 47 59 20 be b6 50 1e 3e 00 69 9f 3d 3e 01 83 3d
       -0.15659057 0.15460476 0.07783699 0.06396721
000160 af c7 dd 3d 2d 69 1e be 4f a8 8e 3d 97 c2 14 be
       0.10829102 -0.15469809 0.06965696 -0.14527355
000170 37 81 06 be 77 ae 32 be f6 6e 98 bd 2e 4e 11 be
       -0.13135229 -0.17449366 -0.07443039 -0.1418998
000180 46 15 dd 3d af ea 92 3d 16 56 74 3d 9d f4 25 3e
       0.10795073 0.071736686 0.05965241 0.16206594
